checkpoint.pth (torch_old, 28393 bytes, 6 tensors)

fc1.weight f4 [64, 37]
000000 3b 48 c2 bd 69 c3 2a be fc 24 08 3e 62 15 2e be
       -0.09486433 -0.16676106 0.13295358 -0.17000344
000010 b3 86 18 be 03 c0 32 bd a5 d1 ed bd c8 57 35 3e
       -0.14895134 -0.043640148 -0.11612252 0.17709267
000020 26 10 95 3e 9e 08 0e 3d 08 36 26 3d bc 2a 72 be
       0.29113883 0.034676187 0.040578872 -0.23649114
000030 c0 46 4b bd a4 1b ed bd 5d 0a 6f be 16 d0 50 3e
       -0.04962802 -0.11577538 -0.23343797 0.20391878
000040 6c 6e 02 be 3f ad 89 bd 83 30 f8 3d 00 2f 3b 3d
       -0.12737435 -0.06722497 0.12118628 0.04569912
000050 8f 4f 79 3e 7f 1d 5a 3d 0e 70 54 bd 79 78 2d 3e
       0.24346755 0.053250786 -0.051864676 0.16940488
000060 16 dd 17 3e 48 ef 91 3b a6 2e 1a 3e a4 d4 5b be
       0.14830431 0.0044535734 0.15056857 -0.21467835
000070 1f 93 4d bd d7 7c 13 3e e0 98 be bd 13 80 ef 3d
       -0.050189134 0.14403091 -0.09306502 0.1169435
000080 f5 d7 41 3d 36 01 84 bd f6 1b 57 be 9d c5 93 be
       0.047325093 -0.064455435 -0.2100676 -0.28861704
000090 a7 28 30 bd 57 44 3e 3e 31 b8 06 3e 8c 7f 02 3d
       -0.04300752 0.18580757 0.13156201 0.03185992
0000a0 12 88 27 be 07 be 5d be 70 1c 00 3e dc 41 cf be
       -0.163605 -0.21654521 0.12510848 -0.40479934
0000b0 45 7d ed be 7b 0b f0 be 48 d9 73 bf 83 5d 9d 3d
       -0.46384636 -0.4688376 -0.9525342 0.076838516
0000c0 8b 97 0c 3c a9 d4 19 3e 6d 66 cc bd 1c 65 30 3d
       0.0085810525 0.1502253 -0.09980474 0.043065175
0000d0 09 42 96 3e 02 0e 34 be 56 ed 9c bd 38 cf dd bd
       0.29347256 -0.17583469 -0.07662456 -0.108305395
0000e0 db f9 10 3b 5c 43 96 bd 35 b8 73 be 24 f5 ee bd
       0.0022121582 -0.073370665 -0.23800738 -0.116678506
0000f0 4e 37 3b bd b4 ad 26 3e fb d2 bb be 79 25 d5 3d
       -0.04570704 0.162772 -0.36684403 0.10407538
000100 f5 56 82 3e 44 3b 8c be 9a 22 0b 3f b1 4f c9 bd
       0.25456968 -0.27388966 0.5434967 -0.09829653
000110 e7 2b e8 3d 5c bf 70 3e 8c 8f 44 bd 3e 49 76 bd
       0.11336499 0.23510498 -0.04798846 -0.060128443
000120 b6 5a 76 bb c0 e9 90 bc 17 a1 79 3d 71 bc 46 3c
       -0.003759069 -0.017689586 0.060944643 0.012129889
000130 d0 8d 93 3e d0 56 7f bd fa 8b 87 bd 47 08 53 bf
       0.28819132 -0.06233865 -0.06618495 -0.82434505
000140 d7 c0 24 3e 0e d3 fd 3d 86 25 6b 3e e5 85 4e bf
       0.16089188 0.12393771 0.22963533 -0.80673057
000150 4e fc 2c be b8 ce cb 3d db 40 1b bd e6 2c 9e bd
       -0.16893122 0.09951538 -0.037903648 -0.077234074
000160 2b d4 29 3d f3 08 a6 be b6 e1 66 3e 80 56 9d 3d
       0.041462105 -0.32428703 0.2254704 0.07682514
000170 dc ae cc 3d a7 9c 3f be 68 b5 cb be d2 88 48 3e
       0.09994289 -0.18712102 -0.3978684 0.19583443
000180 c1 49 87 be 23 15 9d 3e 8c 93 9b 3d 1b 96 6f bf
       -0.26423457 0.3068019 0.07596502 -0.9358842
000190 26 d6 61 3e 7b 1a 9e 3e 6d 7d d1 3a de e2 e5 be
       0.22054347 0.30879578 0.0015982814 -0.44899648
0001a0 b2 9e 4e bf 52 78 d4 3d 9c 20 d1 3d b4 4f 8d 3d
       -0.807109 0.10374512 0.10211298 0.06899968
0001b0 89 b5 0c bf 85 9f 06 bd c4 11 5d bc 8c cb 29 3d
       -0.549645 -0.032866973 -0.013493005 0.041453883
0001c0 35 23 4f 3e 08 31 b6 3d 78 e7 00 3e 7d 8f e0 bd
       0.20228274 0.08896071 0.12588298 -0.10964868
0001d0 e1 7f f4 bd 6e 05 0b 3e 8d b7 5b 3e e8 df d2 bd
       -0.119384535 0.1357629 0.21456738 -0.10296613
0001e0 85 3d 0e bd 8c 01 7e bd 3b f9 06 3e a3 50 59 3d
       -0.03472664 -0.062013194 0.13181011 0.053055417
0001f0 fd 63 1a 3e f2 b4 2f 3e d0 9f b4 bc d7 65 5e 3d
       0.15077205 0.17158869 -0.02204886 0.05429634
000200 d1 ad 1d 3d ce 4b 18 bc 04 05 a3 bc 68 74 26 3d
       0.038495842 -0.009295417 -0.019899853 0.040638357
000210 4f 22 e2 3d 75 95 fa 3d 4d 70 29 3e 6a 37 b6 3e
       0.110417 0.12235538 0.16546746 0.35589153
000220 da 54 09 3d b4 e9 6c 3b 97 3a 28 3e 33 12 cc 3d
       0.033528186 0.003615004 0.164286 0.09964409
000230 34 17 a8 bc af 7e b3 3e 8f 34 b0 be 8e 43 c2 bd
       -0.020518877 0.3505759 -0.344151 -0.09485541
000240 2b a0 88 bf 1b c2 28 c0 1b c9 b3 bc 0b ef 2f bc
       -1.0673879 -2.6368473 -0.02194648 -0.010738145
000250 0e 06 0d be 44 ad a9 be 75 27 f3 bd a7 19 56 be
       -0.13771841 -0.33140004 -0.1187276 -0.20908223
000260 a3 ce 07 3e 0e 17 4c bd 99 ad 2c 3d 31 d2 d3 3d
       0.1326242 -0.049826674 0.042157743 0.10342825
000270 7e e5 da bd 55 77 ae be dd 99 d5 bd 30 e4 ba bd
       -0.106883034 -0.34075418 -0.10429738 -0.091255546
000280 ce 5a 23 be c2 77 2d bd e2 1b 8c be 65 47 5b 3e
       -0.15952608 -0.042350538 -0.27365023 0.21413954
000290 dd 8a af be 93 05 86 be ec 6f a0 be 02 c8 d9 3d
       -0.34285632 -0.26176128 -0.3133539 0.106338516
0002a0 d2 eb 2f bf 3a d1 81 3d 81 23 33 3e 78 6a fc 3c
       -0.6871921 0.06338735 0.17494012 0.030812487
0002b0 b5 4c 63 3e cf 5d 05 be c0 f7 41 3e 20 c4 65 bd
       0.2219723 -0.13024066 0.18942165 -0.056095243
0002c0 b2 c4 bd be 14 ed 42 be b1 73 6d 3e 87 c7 58 bd
       -0.3706413 -0.1903575 0.23188664 -0.05292466
0002d0 75 34 f8 be ea 03 5b be 2a 9a 91 be dc 34 0f 3d
       -0.48477522 -0.21388212 -0.2843793 0.03496252
0002e0 2d be d0 3c 22 1d 3e bc ed c8 80 bd e0 83 1f bd
       0.025481308 -0.0116036255 -0.062883236 -0.038944125
0002f0 9c 5a 2f 3e d2 f3 04 be ab c3 83 3e de 82 f6 3d
       0.17124408 -0.12983635 0.2573522 0.1203668
000300 b1 40 f6 be bb de 4e be c7 e7 ba bf 4b 8a 1b 3c
       -0.4809623 -0.20202152 -1.4601983 0.009493421
000310 d2 0e 20 bd 8f 2a d6 bd af 5c 37 bd b5 d3 77 bd
       -0.039076634 -0.10457336 -0.044766124 -0.060504634
000320 76 5f c8 be 2d 0c 3e 3e c4 1b 20 bd 75 e2 7e 3e
       -0.3913533 0.18559332 -0.03908898 0.24891074
000330 89 ca ab be 84 02 07 3e 20 e7 03 3b e2 b8 15 3e
       -0.3355296 0.13184553 0.0020126775 0.14621308
000340 2a c1 f1 3d 66 e6 54 3d 61 e6 18 be fc 82 f3 3d
       0.11804421 0.051977538 -0.14931633 0.11890218
000350 ab 58 eb 3b cc 0e d7 3d db 83 54 3e 01 88 83 be
       0.007182201 0.10500869 0.20753424 -0.256897
000360 93 cf 25 3e df ac 3d be e9 e4 db 3e f1 61 84 3d
       0.16192465 -0.18522976 0.42948082 0.06463993
000370 c7 77 e6 bd 6c 55 27 bc 10 14 84 be e2 c0 4f 3e
       -0.112533145 -0.010213237 -0.25796556 0.20288423
000380 3b e9 1c be 50 eb 0b bf d2 ad d6 be 3f ae 13 bf
       -0.15323345 -0.54655933 -0.4192949 -0.57687753
000390 bf 2c 9f 3d 4a a8 81 be 52 09 5b be 5a 69 91 3e
       0.077722065 -0.25323707 -0.21390274 0.2840069
0003a0 6b 41 a4 3d a5 8c 84 bc 66 b5 09 be 4b 4b 0d bf
       0.0802029 -0.016180346 -0.13448104 -0.5519301
0003b0 a0 6b 78 3e ce 03 3e be 94 92 ac be ba 79 38 3e
       0.24259806 -0.18556139 -0.3370558 0.18015185
0003c0 fc aa 34 bf b7 52 ab 3d db 02 02 be a7 00 6b bf
       -0.705734 0.08365386 -0.12696402 -0.9179787
0003d0 4f 92 9e 3d d5 d1 4c 3e 20 e6 76 bd 0e 9b 0e bf
       0.0774275 0.2000192 -0.060278058 -0.55705345
0003e0 a9 b8 03 3e 10 a5 ae be cd 59 af 3d d1 6a dd be
       0.12863411 -0.34110308 0.0856205 -0.43245557
0003f0 43 52 5d be c7 43 04 be 4b c5 b7 bd 8b 9f 59 bd
       -0.21613412 -0.1291648 -0.089731775 -0.053130668

fc1.bias f4 [64]
000000 f6 70 fb 39 8d ca 3e be eb 7f 0a be ff 31 bf bc
       0.00047958613 -0.18631954 -0.1352536 -0.02333927
000010 98 7b ec 3d ad 8e 1e be ed 73 3a be ca 67 c0 3c
       0.11547011 -0.15484114 -0.18208285 0.02348699
000020 e5 84 26 3d 94 1b 89 be da 36 b0 3d 56 1e 3d 3e
       0.04065408 -0.26778853 0.08604212 0.18468603
000030 a2 89 b8 3d 92 68 b9 3e 5a a1 b9 bd f7 91 91 be
       0.090106264 0.36212593 -0.090639785 -0.28431675
000040 6c 97 f9 3d 43 a2 90 3c 1c 54 5e 3c 3f 0c ef bd
       0.121870846 0.017655497 0.013569858 -0.11672258
000050 b7 0b cc bd f9 ac 1a bd b2 25 17 be ce 2f 5a bd
       -0.09963172 -0.037762616 -0.14760473 -0.053268246
000060 2f 2d 11 be 98 cf f4 3c 4a 6f 2c be 51 9e a9 bc
       -0.14177392 0.029884145 -0.16839328 -0.020705374
000070 19 19 a9 3d b0 de 01 3e f6 18 e6 bd 02 ea 2d be
       0.0825674 0.12682605 -0.1123523 -0.16983798
000080 97 50 77 bd ed 84 f1 3c f5 77 37 be e1 64 69 3d
       -0.06037959 0.02948233 -0.17916854 0.05698097
000090 8d 01 12 be 44 ce 9f bb 6f 46 b6 3c ef 24 53 be
       -0.14258404 -0.0048768837 0.022250382 -0.20619558
0000a0 40 72 dc bd a0 d2 17 be ce 19 a2 3d e4 50 99 3d
       -0.10763979 -0.14826441 0.07915078 0.07486132
0000b0 8a 32 5c 3c fc 98 1c be f6 b7 d5 3c a1 28 8f be
       0.013439784 -0.15292734 0.026088696 -0.27960685
0000c0 0c e6 5d be 1a ff 89 3d 64 ef b8 be cc 9b b2 3d
       -0.21669787 0.0673811 -0.3612014 0.08721122
0000d0 18 14 01 be 9e 2d d0 bc 5e 98 7f be 78 37 d7 bd
       -0.12605321 -0.025412377 -0.24960467 -0.10508627
0000e0 52 d9 37 3e ef b2 53 bd 9e 09 16 bd 5e 59 e9 bd
       0.17953995 -0.051684316 -0.036630265 -0.113939986
0000f0 55 dc 5b bc 77 52 a1 bd b4 1e 3c 3e 21 ff 4e 3e
       -0.0134192305 -0.07877057 0.18371087 0.20214511

fc2.weight f4 [64, 64]
000000 64 6d 03 3e c7 d3 61 be 52 5d 45 bc b6 7e c0 bd
       0.12834698 -0.22053443 -0.012046175 -0.09399168
000010 41 05 7a 3e 71 c0 39 be 43 44 13 3e 67 ff 57 3e
       0.24416067 -0.18139817 0.14381509 0.21093522
000020 e3 8e ba bd de 7c d5 bb 1a ef c8 be 3b d4 b1 be
       -0.09109285 -0.0065151295 -0.3924492 -0.34732231
000030 e5 3c 21 be 99 62 a9 bb 2a 54 03 be ca 62 a7 bd
       -0.15745886 -0.0051692245 -0.12825075 -0.081731394
000040 eb 8f 27 bb d1 fe 39 bf 61 f2 ca bd fb ed 9b 3e
       -0.002556796 -0.72654444 -0.09909511 0.30455002
000050 5e e6 5b be 76 bd 7a 3e 24 52 35 3e f6 28 10 be
       -0.21474597 0.24486336 0.17707115 -0.14078125
000060 83 07 02 bf 98 37 4c 3d 0d 7d e1 be 47 5b 44 3d
       -0.5079271 0.049857706 -0.4404072 0.04793861
000070 5a 07 54 3e fc 71 74 be 54 97 e4 3d d4 1d 92 3e
       0.2070593 -0.23871607 0.11161676 0.28538382
000080 18 16 4f bc b1 17 80 3f ca 86 3c be 5b 1f b2 3d
       -0.012639545 1.000723 -0.18410793 0.08697387
000090 8d f8 98 3c c5 6f 7f be 11 62 a6 be 72 11 0d be
       0.018673206 -0.2494498 -0.32496694 -0.13776186
0000a0 5b 9f 12 be 9e cc 20 be 0f 90 68 3e 11 2b c6 3d
       -0.14318602 -0.15703055 0.22711204 0.09676183
0000b0 ff bb 48 3e 65 91 cb 3c 19 c2 60 be 41 ca 15 be
       0.19602965 0.024849603 -0.21949042 -0.14627935
0000c0 a2 c9 1f be 4f 2d 07 3d 38 cd 88 bd 39 a2 6c bd
       -0.1560426 0.033002194 -0.06679767 -0.057771895
0000d0 c4 f1 89 3d b7 75 14 bf 1d 43 46 3e 8b 1f 0b 3e
       0.06735566 -0.5799212 0.19361539 0.13586251
0000e0 1c f6 26 3e 4b f1 33 be 99 b4 37 be c4 f0 b1 bd
       0.16304821 -0.17572515 -0.17939986 -0.086885005
0000f0 ad a2 27 bf cc 96 e8 3d 80 70 2e bd 3c ac f9 be
       -0.654826 0.11356887 -0.042587757 -0.48764217
000100 41 a2 6f be 30 78 4b 3d 79 ae bd be fc 8b c4 bd
       -0.23401739 0.049675167 -0.37047175 -0.095970124
000110 5e a4 3d 3d 4f ab 71 3e ee 95 3a bd 67 0e 34 3e
       0.04629933 0.23600505 -0.04555314 0.17583619
000120 8a 07 1f be 58 2e 3f be 14 99 86 be 50 cc ab 3e
       -0.1553022 -0.18670022 -0.26288664 0.33554316
000130 81 4c 89 be f7 05 47 bc b6 41 d1 bc 14 38 fb 3c
       -0.2681618 -0.012147418 -0.025544029 0.030666389
000140 b7 d3 64 3d dd be 79 be 30 86 61 3e 55 c5 cd 3e
       0.05586597 -0.24389215 0.22023845 0.40189615
000150 62 9c 13 3e 5f ec ef 3d 4c 50 28 3d 4f 91 60 3e
       0.14415124 0.11715006 0.041092202 0.21930431
000160 67 60 bd bd 32 4c a5 bd dd ce b2 bd 2c 6d 40 bd
       -0.09246903 -0.08071174 -0.08730862 -0.046979114
000170 81 4a 1c 3e c6 f0 3f 3e 67 be de 3e b2 d8 96 3d
       0.15262796 0.18744192 0.4350464 0.0736555
000180 a8 fd 8d be b1 28 0f be 69 2e 16 3d 2b 55 7e 3e
       -0.27732587 -0.13980366 0.036665354 0.24837177
000190 5a b0 ff 3d 48 6e 92 3e 37 d5 66 be 90 b5 48 be
       0.12484808 0.28599763 -0.22542273 -0.1960051
0001a0 ee 66 d8 be 1c aa 41 3e 2e b5 1a 3c e5 92 cc bd
       -0.4226603 0.18912548 0.009442611 -0.099889554
0001b0 d3 64 9b 3d 2a 26 29 be 41 6f 6d be 4f e8 5b 3e
       0.0758759 -0.16518465 -0.23186971 0.21475337
0001c0 b5 dc 8d 3d c0 73 44 3c e0 7c ee bd d5 44 4d 3e
       0.06926862 0.011990488 -0.11644912 0.20045789
0001d0 e3 1c 22 be 5b 4d 6e bc 74 88 74 bd ce 60 85 3d
       -0.15831332 -0.01454481 -0.059700444 0.06512605
0001e0 4b 87 b2 3e 57 43 10 be 37 6a 9d 3e c2 64 fe 3e
       0.34868845 -0.14088188 0.30745098 0.49686247
0001f0 9a c1 a4 be cc 39 15 be 1d 35 c2 bc 64 53 2d be
       -0.32178956 -0.14572829 -0.023706967 -0.16926342
000200 73 0f 72 bd 74 e5 35 3d 48 e4 06 3d 21 02 1f bf
       -0.059096765 0.044408277 0.03293255 -0.62112623
000210 12 cc 2e be d6 4c 44 bd ee f8 c7 be 56 50 21 3e
       -0.17070034 -0.04792484 -0.39057106 0.15753302
000220 bf 6c 97 be 8d 94 37 bd c4 4c 93 3e 8b 81 5f be
       -0.29575154 -0.044819403 0.28769505 -0.2182676
000230 5b df 93 bc 3a 88 18 3d 49 cd 9c be 15 c6 9d 3d
       -0.01805084 0.03723929 -0.3062537 0.07703797
000240 b9 ac 24 be 99 78 ad 3d 70 fb f4 3c fa ac 4d 3e
       -0.16081513 0.08470268 0.029905051 0.20085517
000250 f1 85 c2 3c 0b d6 7d 3d de c3 7c 3d de 29 0a be
       0.023745509 0.061971705 0.06171023 -0.13492534
000260 cb 46 2c bd e9 a9 9a 3d f0 f8 c8 3d 60 99 2e 3e
       -0.0420597 0.07551939 0.09813106 0.17050695
000270 86 4c 88 3e e8 3c 78 3d 8b fa 42 3e 4e f3 64 3e
       0.26620883 0.06060496 0.19040887 0.22358438
000280 c6 d2 37 3e c7 e2 2f bf dd 3b f6 3d 89 99 e6 bd
       0.17951497 -0.6870541 0.12023137 -0.11259753
000290 af a1 b8 3d 1b af 38 3e e8 80 bc be e6 90 4c be
       0.09015214 0.18035547 -0.36817098 -0.1997715
0002a0 cc 83 c9 3d be 97 32 3e 8a e0 a3 3d f0 eb 79 bd
       0.098395914 0.17440698 0.08001812 -0.061016023
0002b0 a0 51 01 be 87 44 0d 3e 20 4b ca bc 1b e9 2b be
       -0.12628794 0.13795672 -0.024694026 -0.16788141
0002c0 c6 f2 d2 bc 10 65 8a 3d 23 16 fe 3d f1 3e d6 bd
       -0.025750529 0.067575574 0.12406566 -0.10461224
0002d0 26 8a 00 3e f1 83 ac 3e 7c 29 09 bf 21 c8 fa 3d
       0.125527 0.33694413 -0.53578925 0.12245203
0002e0 90 58 e5 3a 97 a5 e2 bd c7 2e 6d be 6f 2b ad bd
       0.0017497707 -0.1106674 -0.23162375 -0.0845555
0002f0 21 99 f4 3e 1c c0 6d be 3d 05 0d 3e fa 0d 13 3d
       0.47773078 -0.23217815 0.1377153 0.035902
000300 5f 3e 80 be 36 ed 90 be 7e 1a 2b 3e da e2 2f 3e
       -0.25047585 -0.28305978 0.16709325 0.17176381
000310 99 42 de bd af e4 6e bd c0 ea a8 3d b5 bc eb be
       -0.10852546 -0.05832356 0.082479 -0.4604241
000320 2c fa 16 bf fb 59 65 bf 64 2d cf 3d af 3e 91 be
       -0.5897548 -0.89590424 0.101160794 -0.28368136
000330 2e 28 03 bc 94 71 ec bd 84 9e e0 3d 20 75 3d be
       -0.008005185 -0.11545101 0.109677345 -0.18501711
000340 dc 6a 1b 3e bd 52 d7 3e d9 83 a8 3e d7 0d 96 be
       0.15177482 0.42055312 0.32913092 -0.29307434
000350 b6 d3 e6 3d 7e b8 30 be bb 28 c5 3e 89 b2 12 3e
       0.112708494 -0.17257878 0.38507637 0.14325918
000360 19 fc 1e 3e f9 10 a5 be d6 a0 02 bd ec 4e 03 3f
       0.15525855 -0.32239512 -0.031891666 0.512923
000370 18 b7 d3 3d b3 3b a0 be a9 aa ce bd ef ea 58 bd
       0.10337657 -0.31295547 -0.100911446 -0.052958425
000380 6d a0 a6 bb ea 8a 5c 3e e7 ae 4c 3e 06 ec 2d 3e
       -0.005085042 0.21537367 0.19988595 0.16984567
000390 2a a0 82 be b7 70 95 be ff d4 94 bc f7 8b 2d be
       -0.2551282 -0.29187557 -0.01816797 -0.16947924
0003a0 31 fb 9e bd 24 34 87 3e c4 ab 6a 3d 7f b0 6f bd
       -0.07762755 0.26406968 0.057292715 -0.05851793
0003b0 8b 3c a8 3d 03 17 5c be 0c 42 90 3e ec f6 09 bd
       0.08214673 -0.21493153 0.2817539 -0.03368275
0003c0 89 cc c4 be 05 e1 d6 be 16 3d 09 bf 83 89 d8 be
       -0.38437298 -0.4196855 -0.53608835 -0.42292413
0003d0 90 fe 6a 3e a6 04 0c bb 08 43 80 bf be 98 1c be
       0.2294867 -0.0021365075 -1.0020456 -0.15292642
0003e0 3f 3f f8 3e 06 3c a7 be a1 2e e2 bc 69 f0 28 bf
       0.48485753 -0.32662982 -0.027610125 -0.65991837
0003f0 18 d3 81 3e a1 6a d3 3e 37 6d 23 bf c7 80 0c 3e
       0.25356364 0.4129229 -0.63838524 0.13721

fc2.bias f4 [64]
000000 37 33 05 be df 7c a9 3d 6d 33 e0 3c 19 83 17 be
       -0.13007818 0.082757704 0.027368272 -0.14796104
000010 ec 77 b0 3e e1 21 9d be da b6 72 3d 75 d2 c7 bd
       0.34466493 -0.3068991 0.059256412 -0.09756938
000020 01 03 df 3e c2 1d 38 3f f2 45 85 be 87 5f 20 3d
       0.4355698 0.71920407 -0.26029927 0.039153602
000030 cb 7c 27 3e f8 74 f0 3c ad d2 c4 3d 9d ab cb 3d
       0.16356198 0.02935265 0.09610496 0.09944842
000040 a8 a1 17 3f aa e4 22 be eb dc b2 be 72 02 b1 3e
       0.5923104 -0.15907541 -0.34934172 0.34572178
000050 bc 18 13 3f 07 e2 4a 3f 1f 21 4e bd 57 67 50 be
       0.57459617 0.7925114 -0.050324555 -0.20351921
000060 88 ea 44 be a6 4d 3f bd 5c 54 29 be f7 6c 8c 3d
       -0.19230092 -0.04670491 -0.16536087 0.06856721
000070 01 5f 88 3c a4 05 8d be a9 4e dd 3d ca 95 12 3e
       0.016646864 -0.27543366 0.10806019 0.14314952
000080 c3 cd 42 3d 53 10 32 3e 25 75 f8 3d 23 76 01 be
       0.04755951 0.1738904 0.121317185 -0.12642722
000090 b1 ae a0 bd b3 e7 2c be b2 30 3f be 5f 6b 8c bc
       -0.0784582 -0.16885261 -0.1867092 -0.017141042
0000a0 dd 05 b8 bd 84 bc 50 3f df 0d 28 3f 2f aa fb bd
       -0.08985493 0.8153765 0.65646166 -0.12288319
0000b0 24 dc a0 bd 76 fd 56 be 3f 57 1b 3f a5 ed cc 3d
       -0.078544885 -0.20995125 0.6068 0.100062646
0000c0 70 35 41 3e 40 7e 8a 3d a6 27 cf bc fa 4a 3a 3f
       0.18868041 0.067623615 -0.02528746 0.72770655
0000d0 78 5d 2a bd 0b ca 25 be 9c e2 e8 3e 89 72 8f be
       -0.041593045 -0.16190355 0.4548539 -0.2801707
0000e0 9c e8 1c be de 09 2f be d0 0b ed bc df 5d 0a 3e
       -0.15323108 -0.17093608 -0.028936297 0.13512371
0000f0 75 50 38 3d c6 94 1d 3f d8 b6 18 3e d3 20 51 be
       0.044998605 0.61555135 0.149135 -0.20422678

fc3.weight f4 [4, 64]
000000 16 72 cc 3e 44 f4 3d 3e b2 5e 3e 3e 15 19 98 be
       0.3993079 0.18550211 0.18590811 -0.29706636
000010 9d da 82 3e 61 04 49 be 79 30 ab 3e c5 f1 11 bf
       0.25557414 -0.19630577 0.3343542 -0.57009536
000020 aa 75 16 3e 3f 01 51 3e 1b 85 f0 be f3 98 b1 be
       0.14693323 0.20410632 -0.4697655 -0.34687003
000030 e1 91 56 3d 27 ee 64 3e 7f 3a dd 3e 4c 5d e6 bd
       0.052385215 0.22356473 0.4320869 -0.11248264
000040 37 9a 36 3e 78 3a c8 bd be ec 34 be f0 27 18 3e
       0.17832266 -0.09776777 -0.17668435 0.14858985
000050 ba bc 45 3e de fa 90 3e d0 dc b5 3d 3a 7b d6 bd
       0.19310275 0.28316396 0.08880007 -0.10472722
000060 e5 1b 10 3f f0 47 46 3d c6 8c 1b be ac 1a 92 3d
       0.56292564 0.04840845 -0.1519042 0.071339935
000070 01 aa b3 3e 2c 19 05 bf fa 32 2f bf a2 5d 35 3d
       0.3509064 -0.51991534 -0.6843716 0.04427875
000080 a2 44 0c 3f e9 78 7b 3e dd ff 6e 3c c8 88 2f b9
       0.54792225 0.24557842 0.01458737 -0.00016740256
000090 e1 88 2c 3e 8c ab 32 be bc 58 57 be 47 b1 0a 3e
       0.1684909 -0.17448252 -0.21029943 0.13544188
0000a0 f4 d2 1d 3d 84 e8 75 3e 46 b3 42 3e a1 96 35 be
       0.03853126 0.24014479 0.190137 -0.17733242
0000b0 54 04 1d bd 72 37 ab be 0d 4d 80 3e 86 a4 bd 3d
       -0.038334206 -0.3344074 0.25058785 0.09259896
0000c0 07 77 7f 3e d1 71 25 3e 5a fd b8 3e ad ba 6c 3e
       0.24947749 0.16156699 0.36130792 0.23118086
0000d0 10 06 1b 3d 7e d2 cc 3d 5c d9 0f 3e fc f7 8a bd
       0.03784758 0.10001086 0.1404776 -0.067855805
0000e0 f2 3f 62 bf a7 5c 0b be b5 36 31 3e a5 41 84 3d
       -0.8837882 -0.13609563 0.17306025 0.06457833
0000f0 c7 2e 15 be 26 01 86 3e 40 7f b2 3e c3 d4 5f be
       -0.14568625 0.2617275 0.3486271 -0.21858506
000100 be 47 f6 3e 8f 21 eb 3d ef d8 2b 3d 45 53 37 be
       0.4810161 0.1148101 0.04195493 -0.17902859
000110 4b a2 e4 3d ad 95 87 bd 75 d7 c7 3e ec 14 1d 3d
       0.111637674 -0.06620345 0.39031568 0.03835003
000120 34 91 86 3e df be 63 3e 3f d0 13 3d 00 54 fa bd
       0.26282656 0.2224078 0.03608727 -0.12223053
000130 7c 3a d8 3d ab 82 62 3d 6b 90 05 3f 12 22 e4 3d
       0.1055803 0.055300396 0.5217349 0.11139311
000140 c2 c8 53 3e c4 6b c0 3e 59 fd dc be e8 27 61 3e
       0.20682052 0.3758222 -0.4316204 0.2198788
000150 e0 26 4f 3e 09 a8 9b 3e 33 e1 22 3e be 9e 83 bd
       0.20229673 0.30401638 0.15906219 -0.06426762
000160 e3 1a de 3e 49 f9 e9 3e f7 8c d1 be e0 83 15 be
       0.43379888 0.45698002 -0.4092786 -0.14601088
000170 af 17 aa 3e 1d 5a b4 3d 39 7a ac bd 6a b8 80 3e
       0.33221194 0.0880625 -0.084217496 0.25140697
000180 59 73 06 3e 4c 25 a0 3e 9e 13 21 3e 4c 0b 56 bd
       0.13129939 0.31278455 0.1573014 -0.052256867
000190 c4 d6 2a be d3 70 a9 bd 27 97 27 be 30 4f 04 3f
       -0.16683489 -0.08273473 -0.16366254 0.5168333
0001a0 23 90 20 bf b3 4d 89 3e db 91 27 3e 4b bd 4f bd
       -0.62719935 0.26817092 0.16364233 -0.050717633
0001b0 62 df ac bd 81 93 69 be 46 b9 68 3e a4 35 01 3e
       -0.084410444 -0.22810175 0.22726926 0.12618119
0001c0 06 4d a1 3e 49 05 1a 3e 3f bb 7e 3e 4f fc f8 3d
       0.31504077 0.15041079 0.24876116 0.12157499
0001d0 ba bf 28 3e 78 fb fd bc 3d fc 82 3e 94 97 2e 3e
       0.16479388 -0.031003699 0.25583068 0.1705001
0001e0 9a 9a 80 be 56 58 59 be 3b be 86 3d bf 0d 9e 3e
       -0.25117952 -0.21225104 0.06579252 0.30869862
0001f0 19 80 d3 be df df 08 3e 04 2b 01 bd e5 75 2a be
       -0.41308668 0.1336665 -0.031535164 -0.16646536
000200 f5 52 51 3f b3 95 a0 3e 5f ce ba 3e 04 20 ae 3c
       0.8176721 0.3136421 0.36485574 0.0212555
000210 4d ef 3b 3e 26 8f 04 3d 20 b0 9f 3e 54 72 3a be
       0.18353005 0.03236308 0.3118906 -0.18207675
000220 69 19 7b 3e a2 7d 61 3e aa c5 88 3d 99 c7 0b be
       0.24521412 0.22020581 0.066783264 -0.13650359
000230 54 00 6e 3e 8a b3 86 3e 3c 6f 2e 3e 6b 9d 0b 3e
       0.23242313 0.26308852 0.1703462 0.13634269
000240 89 a2 5f 3e d7 86 92 bd 01 01 18 3d 8e b8 1e be
       0.21839346 -0.07154625 0.037110332 -0.1550009
000250 45 5f d4 3d 88 7b 98 3e 6e 23 09 be 9e 5a ef 3d
       0.10369734 0.29781747 -0.13392422 0.11687206
000260 3f d8 da 3e 59 60 0c be 6a f7 f3 bd dc 4d 8a be
       0.42743108 -0.13708629 -0.11912425 -0.27012527
000270 8b 68 29 3e 0a 44 1c be f8 9f 0a bf 45 d5 a2 bd
       0.16543786 -0.1526033 -0.5415034 -0.07950834
000280 56 f9 33 3e 19 5c 63 bb 56 45 74 3e 8d 4f ce 3d
       0.17575583 -0.0034692346 0.23854575 0.10073767
000290 69 f6 e6 be 76 86 09 be ec f3 dc be 34 b5 1f bc
       -0.4510987 -0.13430199 -0.43154848 -0.009747792
0002a0 e8 ff 4d be 09 f4 81 3e 8e aa 72 3e 06 70 74 bc
       -0.20117152 0.25381497 0.23697874 -0.014919287
0002b0 e2 da b5 be cc 9e 78 3d 96 6b 72 3e a5 1c 33 3e
       -0.35518557 0.060698316 0.23673853 0.17491396
0002c0 7e 74 a3 3e f3 52 fa 3d 3d 7f b1 3d 8e 95 80 3e
       0.31924814 0.122228526 0.08666847 0.251141
0002d0 57 9d 7c bb 05 70 b8 3e 91 2f 6f 3e 77 ed 27 bd
       -0.003854593 0.36022964 0.23357989 -0.04099795
0002e0 06 d5 7e be c9 27 f1 bd d0 b9 43 3e 9d 58 13 bc
       -0.2488595 -0.117751665 0.1911385 -0.008993295
0002f0 73 bd f9 be 8f 25 79 3e 8e c3 39 bf e3 da 61 3e
       -0.4877735 0.24330734 -0.7256402 0.22056155
000300 68 47 17 3e 51 d7 fe 3d f8 39 cf 3d d3 81 d8 be
       0.14773333 0.12443412 0.101184785 -0.42286548
000310 b1 66 05 3e 87 3c 6a be 1d 90 96 3d 89 ec 00 bd
       0.13027455 -0.22874652 0.07351706 -0.031475578
000320 c7 0c b2 3d 4a 7b 8e 3e ec 57 e3 bd 96 11 dc be
       0.08693843 0.27828437 -0.11100754 -0.42982167
000330 ad 70 7d 3e 00 39 8f 3e 00 c8 a9 3e cd ee 6e 3d
       0.24750014 0.27973175 0.331604 0.058333207
000340 45 92 91 3e 9b ca b7 3e a5 e4 49 be d5 f4 8a 3e
       0.28431907 0.35896763 -0.19716127 0.27139917
000350 f3 a5 c8 3d e7 0a ab 3e 44 50 cf bd 55 ae 92 3d
       0.09797277 0.33406755 -0.10122731 0.071621574
000360 6b 2d 0f 3d ce 28 ec be 8f 88 a8 be 09 f3 01 3f
       0.034955423 -0.46124882 -0.32916686 0.5076147
000370 db 16 12 3f b8 43 aa be c9 80 82 bf 30 0f 3f 3e
       0.57066125 -0.3325479 -1.0195552 0.18658137
000380 df 9d 7b 3e 15 80 f4 3e d1 cd d2 3d 1c fa 36 3a
       0.24571942 0.4775397 0.102931626 0.0006980018
000390 7d 9b 47 be ee 82 de 3d 90 cd ca 3d f0 ca 1d 3f
       -0.19492908 0.108648166 0.09902489 0.61637783
0003a0 76 91 f9 be 81 cf 83 3e c1 ac 6c 3e 3c 04 8b be
       -0.4874379 0.2574425 0.23112775 -0.27151668
0003b0 dc 03 00 be f5 54 a8 be 39 83 31 3e 63 fe 2f 3e
       -0.12501472 -0.32877317 0.17335214 0.17186885
0003c0 2e 05 49 3e 55 8f df bc 9a 32 bb 3e 93 cd 5b 3e
       0.19630882 -0.027290026 0.36562043 0.21465139
0003d0 4e 90 ce 3e 93 ba a7 3d 67 da 24 3e f5 2d ca 3e
       0.4034447 0.08189883 0.16098939 0.39488187
0003e0 f0 2d 7b be 99 ab 0c bf 12 96 30 be 73 03 22 bd
       -0.24529243 -0.5494934 -0.17244747 -0.03955407
0003f0 96 36 b9 be 8c 0a 48 3e 44 b2 aa 3e 9b 4a e5 3d
       -0.36174458 0.19535273 0.3333913 0.111958705

fc3.bias f4 [4]
000000 29 b7 20 3f ee f4 d4 3e e9 b6 a9 3e 6d 62 c5 3e
       0.6277948 0.41593117 0.33147362 0.38551655
